disulfiNNate/models/cys_gat.pt (torch, 22005 bytes, 10 tensors)

gat.att f4 [1, 4, 32]
00000000: f835 0c3e 4824 ba3e 446e a5bd c1be 10bf
00000010: 82a2 633e 5c71 a33e ab84 acbe edac 733f
00000020: ee1f f0be 7d24 8d3e eee6 a63e 5a88 2a3f
00000030: cf01 863a 727e 27bf 9c00 d13e ca68 453d
00000040: ea81 86bf 5d97 f6be 0027 15c0 c184 be3e
00000050: 1285 b73e 08cf de3e 2953 5b3e 9b9e 8cbe
00000060: 50ee 823e 7272 6ec0 6ff1 92bf 2ff3 793e
00000070: d437 933e 92fb 98be 77d5 c4be 1180 463e
00000080: 14ef 06bf 5e49 24bf 0942 afbf 0e6c 37be
00000090: 1100 c03d c2d8 e73e 4469 203e b912 733d
000000a0: 2d8d f6be be3b 4fbe 19e6 e23e 5b36 353e
000000b0: a5b1 5ebf 3a12 49bf b510 aa3e eae5 da3e
000000c0: d3ab 56bf 80b8 13bf bf38 fb3f a9f7 053f
000000d0: bed3 dcbe 436c 123f 8594 a23e 8e88 833c
000000e0: 3abf 823e efba f3be 8e79 323e 6f8d cc3e
000000f0: 9be6 63be 190a f0be a1f3 f53e a34b 003f
00000100: 420d 1e3f cf8c 1ebf 360f 5cbf 6177 1c3f
00000110: c0e5 40be 707e 353e d292 f6bd d937 76bf
00000120: 64d6 91be 6446 533d 8c83 8e3e 7e0f 473d
00000130: be97 9dbe bf6e c8be 86c4 c03e 6bc1 083f
00000140: 9ddd 963f 333e 46c0 3a72 663e 730f dfbe
00000150: 0399 8a3e 1291 cabe ce35 2f3e 3338 f93e
00000160: 2331 943e fc0f 03bf b4de 83bf cf53 8d3c
00000170: 940b 873e cfc4 e8be 105d 08bf d355 4bc0
00000180: 1bd4 873e 0af6 c23e 1478 8cbf 68ba eebe
00000190: a59f c23e afe4 4cbf c5f2 3cbc b0f6 3dbf
000001a0: 2fd4 50bf 3afc 1ec0 0091 c03e c68a 6c3e
000001b0: 5053 233f ef11 d53d b427 76bf 499c 433e
000001c0: 95fc 7e3e bd72 0dbf 5ff7 07bf 078d 823e
000001d0: 6f25 0abf 7146 bcbf 247c ff3d 8b66 2abf
000001e0: 50cf e93e ca1a 173e 9b24 513e b2f6 163f
000001f0: 6046 aa3e d3e5 6b3e c8ea 1d3f df51 c33e
0.13692462 0.36355805 -0.08077672 -0.5654107 0.2222996 0.31922424 -0.33694968 0.9518574
-0.4689936 0.275669 0.3259806 0.66614306 0.0010223928 -0.65427315 0.40820777 0.048195638
-1.0508397 -0.48162356 -2.3305054 0.37210658 0.35843712 0.43517327 0.21418442 -0.27464756
0.25572443 -3.7257352 -1.147993 0.24409173 0.2875353 -0.29879433 -0.3844411 0.19384791
-0.52708554 -0.6417445 -1.3692027 -0.17912313 0.09375013 0.4528256 0.15665156 0.059344027
-0.48154584 -0.20237634 0.44316176 0.17696516 -0.86989814 -0.78543437 0.3321587 0.42753536
-0.8385593 -0.577034 1.9626693 0.52331024 -0.43130296 0.57196444 0.31753936 0.016056325
0.2553652 -0.47603557 0.17429182 0.39951655 -0.22255938 -0.46882704 0.48037437 0.5011541
0.6173898 -0.61933607 -0.8596071 0.6111966 -0.18837643 0.17724013 -0.120397225 -0.96178967
-0.2848388 0.0515808 0.27834737 0.04859876 -0.30779833 -0.39146993 0.37649935 0.5342013
1.1786381 -3.0975463 0.22504511 -0.43566474 0.27069864 -0.39563805 0.17110369 0.4867569
0.28943738 -0.51196265 -1.0302339 0.017251877 0.2637602 -0.45462653 -0.53267 -3.1771133
0.2652901 0.38078338 -1.0974145 -0.46626592 0.38012424 -0.80036443 -0.01153249 -0.7420454
-0.81573766 -2.4841447 0.37610626 0.23099813 0.63799 0.10403811 -0.9615433 0.19102587
0.2490104 -0.552532 -0.53111833 0.2549822 -0.5396337 -1.4708997 0.1247485 -0.6656272
0.4566598 0.14756313 0.2042412 0.5897018 0.33256817 0.2303689 0.6168637 0.381484

gat.bias f4 [32]
00000000: cc5b 933c 3429 05bf bff9 d2bd ea6b 033e
00000010: 5e78 9c3e dbb0 f03d c4dc 67be 814a fabc
00000020: 8924 1dbe cb3e febd 018a 0dbf 5898 4cbe
00000030: f3ab 083f f3ef a53e 262f 9dbc 6077 153f
00000040: 308e df3d f956 67be 695c 8b3e 64fe b0bd
00000050: 542e 053f e261 1fbe 1f3b a7bd af86 123c
00000060: 6b77 ae3e ac46 dabe 0ddc 853d ae33 e93e
00000070: 6b22 2bbe 3b98 38bd 4bef f9bd 8eb1 cc3e
0.017988108 -0.52015996 -0.103015415 0.12834135 0.30560583 0.117524825 -0.22642809 -0.030553104
-0.15345968 -0.124143206 -0.552887 -0.1997999 0.53387374 0.3240963 -0.019187521 0.58385277
0.10915792 -0.22591771 0.2721894 -0.08642271 0.52023816 -0.15564683 -0.08165573 0.008943244
0.34075484 -0.42632043 0.06536112 0.4554724 -0.16712348 -0.045067053 -0.12203845 0.39979213

gat.lin_l.weight f4 [128, 11]
00000000: 2be1 383f 8ec9 4cbe 8dcb c8be 966f 2b3f
00000010: 28c2 29be 0090 18bd 284e bbbe b6a8 5f3e
00000020: d3ac 053d fdf7 b2bb c71d d8bc d3d3 b23e
00000030: bf44 1a3e 4105 b33e 89db 23be 8082 433e
00000040: 6cac 83bc 7492 31be 1ecf 433e 8908 d53b
00000050: ba6d 5e3d b2a8 cb3c a875 9e3f f2a1 d6bd
00000060: 442f 963c 51a0 b33e ded4 0b3e 870b 59be
00000070: b7e8 43bf af1f 163f d878 de3c adcf 23bd
00000080: 7b79 4bbb c0df 31bf b74f 923e 4de1 9abd
00000090: bd9b 19be b87e 203d a38f efbd a88e e9be
000000a0: 117c 053e 1655 e43c 6f7c 9fbc c3f5 3fbc
000000b0: addb 29be 6ee8 013e dfe5 97bd eeb3 35be
000000c0: 00a1 f0bd 1d1a be3d 1a57 953e c2ed d0be
000000d0: b039 593d 3c2b 2d3d 3f9c e93d 3174 02bf
000000e0: 0f97 5fbe 2ec3 10be 42fb 1cbd 6bd1 f3bd
000000f0: 4e4c a9bb 5815 0a3e 9112 b33e 982d f6bd
00000100: 385d ac3d c2c9 3bba 442a aabe cc45 f33d
00000110: 4a45 5a3d 44da fdbd bbf2 5ebd 4f45 203d
00000120: bbf7 613e e889 2cbe 4c6c 033e 22a0 a7bd
00000130: c6e3 c03d 3fa8 a73f 4eb8 eebd 7f5c f03d
00000140: a31a 963e d2df 19bd 5c24 703d 9dab 88be
00000150: f6da 983e 768b 1ebd d636 5cbd 40b7 2e3d
00000160: 5818 443f d5c2 79be 37ef 883e 5643 5f3e
00000170: c912 fc3d 38b8 25bd 2f1a f2bd c5a2 2e3d
00000180: bee7 233d 3d57 91bd aec4 8a3b 8bb0 8fbe
00000190: 7f20 003d 85f7 b8bd 259a 5b3e 8298 86ba
000001a0: 5e16 53ba aeb3 533d c50a 1cbd 0f3a 19be
000001b0: cf96 533d a7f0 96be b9bb ffbd 6563 8c3e
000001c0: e591 8c3e 0e3f 02be aeb7 473e 1264 003c
000001d0: 0d6c b6bd f02c 4f3e 0bc7 e33c ca7d 2a3d
000001e0: 00bb 69bd 1753 37bf fa9e a63e 0e5f 9ebe
000001f0: fe7f 76be ee51 683c b384 973d ebe6 163f
00000200: 02a6 6ebe 4b97 a43d 0786 503d 7445 65bd
00000210: 5710 4b3f 73fd 6bbe e6ab b7be 1d48 143f
00000220: 83a9 1dbc 8dd0 7abd 239b 13be 9e5c 99be
00000230: c99e 173c 3c27 ff3c de5b 2c3d 4f59 c43f
00000240: ec30 28bf 0efe de3d a6b4 e33e d765 eebd
00000250: 323d 49be 40e8 6fbf c1bb 453e 63d3 fabc
00000260: 6da9 903d 2703 26bd db1b 92bf 384a 253e
00000270: 5047 cabe 92b2 4bbe 3097 843d 1ab2 633e
00000280: b5c1 433f 4efc f0be f297 d0bd 912c e4bd
00000290: 4ccf b03d 0c0f 7ebd 597e a3be 2b9a 4f3d
000002a0: b7cc f4bd d57b ecbe 66aa 18bd 8b90 5f3e
000002b0: 7145 f7be a78d e83b be75 bf3b 55b4 b93c
000002c0: d929 ab3f 4ba2 4fbe 3230 133e b6e8 413e
000002d0: 5490 863e eefb c8bd 4ada 61bf 2435 433f
000002e0: 923e 393d 0136 293d 6a81 2a3d c2ce 663f
000002f0: ddf8 263e 1025 113d 3b21 aebe a69c 393e
00000300: d40c 11bd 4491 84be 8363 903e 3138 91bd
00000310: 9c4b 1abe cc7f 103c 574c a53f 4abe 9fbe
00000320: d5c9 823e 153c 933e 5a02 ed3d 57f4 8fbd
00000330: aa48 8bbe 11cc c53e b16b 1a3c d933 92ba
00000340: 1094 debb 7aa2 98be a6b6 d43d 4931 723c
00000350: 0a1d e5bd 29ac 2a3e 9d4b d03c 0af4 fc3d
00000360: 76f0 10be 8ca9 53be 19a4 b8bd 743a cebd
00000370: b09e 8dbe 992c 163d d34c 8a3d c38e f93a
00000380: 7219 6fbe 6458 82bd 5c2f b23d 897b adbe
00000390: 8342 0c3d 1447 6a3d ec91 a33b 7ace 86bf
000003a0: b58c 973e de47 a7bd 1f2c ccbe 60e4 993d
000003b0: 3b10 0d3e 10b8 ef3e d129 013e eb81 a03d
000003c0: cd23 623d 1400 4e3e 95ca 75bf 67b1 3c3e
000003d0: b3dc c8bd 3d62 0bbd f055 3ebd 67d8 593d
000003e0: c774 2a3f b1e6 d3be d234 133d d03e 943d
000003f0: 16eb bbbc b947 593f c00a 803d 1e1a 043f
0.7221858 -0.19998762 -0.39217797 0.6696714 -0.16577971 -0.037246704 -0.36583066 0.21841702
0.03263552 -0.0054616914 -0.026381386 0.34927234 0.15065287 0.34964946 -0.16001715 0.1909275
-0.016073428 -0.17341024 0.19121978 0.0065012616 0.054303862 0.024860714 1.2379656 -0.10480107
0.018333085 0.3508325 0.13655421 -0.21195804 -0.7652697 0.58642095 0.027157232 -0.039992977
-0.003104775 -0.6948204 0.28576443 -0.07562504 -0.15000816 0.03918335 -0.116973184 -0.4561665
0.13035609 0.027872603 -0.019468514 -0.011716309 -0.16587706 0.12686321 -0.07416891 -0.17744419
-0.11749458 0.092823245 0.29168016 -0.40806395 0.05303353 0.04227756 0.11406755 -0.50958544
-0.21834968 -0.14136955 -0.038325556 -0.11905178 -0.005166567 0.13484704 0.34975103 -0.12020415
0.084162176 -0.0007163548 -0.3323537 0.11878547 0.053288735 -0.123951465 -0.054430705 0.039128598
0.22067158 -0.16849482 0.1283428 -0.0818484 0.09418444 1.309822 -0.11656247 0.11736392
0.29317197 -0.037566967 0.058628425 -0.2669343 0.29854554 -0.03870722 -0.053763233 0.04265523
0.76599646 -0.24390729 0.26745006 0.2180303 0.123082705 -0.040458888 -0.118214004 0.042635698
0.04001593 -0.070967175 0.004234872 -0.2806438 0.03128099 -0.090315856 0.2144552 -0.001026884
-0.0008052344 0.051685028 -0.038096208 -0.14963554 0.051657494 -0.29480478 -0.12486977 0.27419582
0.2745506 -0.12719366 0.19503662 0.007836359 -0.08907328 0.20231986 0.027804872 0.041623868
-0.057063103 -0.7161116 0.32543164 -0.30931896 -0.24072263 0.01417969 0.07398357 0.589461
-0.23305514 0.08036669 0.05090907 -0.05597444 0.7932181 -0.23045902 -0.35873336 0.57922536
-0.009622934 -0.061234046 -0.14414649 -0.29953474 0.009254166 0.031146638 0.0420798 1.5339755
-0.6569965 0.10888301 0.4447376 -0.11640518 -0.1965225 -0.9371376 0.19309904 -0.030618375
0.070635654 -0.04053035 -1.1414751 0.16141593 -0.39507532 -0.19892338 0.06474149 0.22235909
0.7646745 -0.47067493 -0.10185231 -0.11141313 0.08633289 -0.06202607 -0.31932333 0.050684135
-0.11953109 -0.46188226 -0.03727188 0.21832483 -0.48295167 0.0070969644 0.0058428934 0.022668997
1.3372146 -0.20276754 0.14373854 0.18936428 0.2628199 -0.09813677 -0.8822371 0.7625296
0.045225687 0.041311268 0.041627325 0.9015924 0.16305871 0.035435736 -0.34009728 0.18126163
-0.035412624 -0.2589208 0.2820092 -0.07090796 -0.15067905 0.008819532 1.2913922 -0.31199867
0.2554461 0.28756776 0.11572714 -0.07029026 -0.27203876 0.38632253 0.00942509 -0.0011154368
-0.006792553 -0.2981146 0.103864 0.014782258 -0.111871794 0.16667236 0.02542668 0.12351234
-0.14154229 -0.20670146 -0.09015674 -0.10069743 -0.2766013 0.036663625 0.06752934 0.0019039739
-0.2334955 -0.063645154 0.08700439 -0.33883312 0.034243118 0.05719669 0.0049917605 -1.0531762
0.29599538 -0.081680045 -0.39877412 0.07514262 0.13775723 0.46820116 0.12613608 0.0783728
0.055209924 0.20117217 -0.9601224 0.18427049 -0.0980772 -0.034029234 -0.046468675 0.053184893
0.6658444 -0.4138694 0.035939045 0.07238543 -0.022939246 0.84875065 0.062520504 0.5160235

gat.lin_l.bias f4 [128]
00000000: 0ed4 e03e e3fe 31be 3a26 553c 3151 40be
00000010: dcd8 e83d 5e9f 8fbc 70d9 abbd 2415 223c
00000020: e979 f1bd 423e 35be 4271 73be 8b2b 3ebe
00000030: 8004 1d3e dab6 123f 56e2 44be aee3 f23e
00000040: 3aa5 e9bd 6928 40be 4901 92bd 4dd5 8abe
00000050: b5eb 61bd 9fc1 10bc 85f1 57be c07a dabd
00000060: a675 e03d fc89 1d3e 4ea6 19bd 2c0e 09be
00000070: 2ad9 32bd 52e3 db3d a09f 26bd bc56 10bd
00000080: 2b89 d93e 9774 4cbe 5860 f4bd b94d 81bd
00000090: eef4 ebbe 1e18 1b3d 6110 36be 2f40 35be
000000a0: 561a 3f3d db82 31bd b390 81be 5d9a 63be
000000b0: 694b 383e 5307 163f e3ec 69bd 9acf af3b
000000c0: 5fb3 053e 29e9 8cbe 6c57 2a3f 732f c7bd
000000d0: dec0 71bd 6f65 17be 2dc4 9fbc 7b97 babd
000000e0: 0690 0cbe 364f b43c 5453 673d 556c a7bc
000000f0: bb4a 3abc 2543 aebc 9d31 78bd caa6 283e
00000100: 9079 6b3e 37f6 21be e859 433e db7b 0bbe
00000110: d552 c2be 6375 c5bd 5a09 a1be 48eb f73e
00000120: d420 673e e5e5 66be a0a0 86be 6c8b 15be
00000130: 11e8 c13d 1d64 193f a08e bdbc 3c28 a7be
00000140: 4297 193f f5cb 3fbd fe9e d33e 4d4c ccbd
00000150: 48a3 75bf 6099 463e 07fd 853e fab4 bc3e
00000160: e5ff d8be 1dae 673e f93d 123e 3a30 5ebe
00000170: 8ffa a03d 1256 d33d f631 3b3e 0eb3 a23d
00000180: 1535 d73e b3bd 1cbe 3c02 173e b9b4 81be
00000190: 9161 3dbe 029c 3cbd 5c12 7dbe 5013 47bd
000001a0: 096d 103e 20e6 f8be d82b 3abe dc78 aebe
000001b0: 0987 813e 40bb 273f dcfc ccbd c2ca a3be
000001c0: f3fe 6b3e 596f 7e3d 6cc8 f23e ea02 aabd
000001d0: f875 5ebd 81f6 8b3d 667c 3ebe 6503 f63d
000001e0: 4c3a 08bf 540a e5bd c5ff 963e 6733 9b3d
000001f0: 80ad 6d3b a5fa 853e d2a9 1e3e c81f 81bd
0.43911785 -0.17382388 0.013009602 -0.18780972 0.11369488 -0.017532047 -0.08391082 0.009892736
-0.11790831 -0.1769953 -0.23773673 -0.18571298 0.15333748 0.5731026 -0.19226965 0.4743933
-0.114084676 -0.18765415 -0.071291514 -0.2711586 -0.05515643 -0.008835225 -0.21088226 -0.10667944
0.1095994 0.15384668 -0.037512116 -0.13384312 -0.043664135 0.10736717 -0.040679574 -0.035238966
0.42487463 -0.1996635 -0.119324386 -0.063136525 -0.46085304 0.037864797 -0.17779686 -0.17700265
0.046655975 -0.043337684 -0.2530571 -0.22226854 0.17997517 0.58604926 -0.05711068 0.005365324
0.13056706 -0.27521637 0.66539645 -0.09725847 -0.059021823 -0.14784788 -0.019502724 -0.09110924
-0.13726816 0.022010427 0.056475952 -0.020437399 -0.011370356 -0.021272251 -0.06059419 0.16469875
0.22995591 -0.1581658 0.19077265 -0.13621466 -0.3795382 -0.0964153 -0.31452447 0.48421693
0.22571117 -0.22548635 -0.26294422 -0.14603966 0.09468091 0.59918386 -0.023139298 -0.32647884
0.59996426 -0.046825368 0.4133224 -0.09975491 -0.9595227 0.19394445 0.26169607 0.36856824
-0.42382732 0.22625013 0.14281453 -0.21698084 0.0786029 0.10319151 0.18280777 0.07944308
0.42032686 -0.1530674 0.14746946 -0.25333193 -0.1849425 -0.04604722 -0.24714035 -0.048602402
0.14104094 -0.4861307 -0.18180788 -0.34076583 0.25298336 0.65520096 -0.100091666 -0.3199063
0.23046474 0.06211791 0.47418535 -0.08301337 -0.054311723 0.06834126 -0.18602142 0.12012366
-0.53213954 -0.111836106 0.29492012 0.075781636 0.0036266744 0.2616779 0.15494469 -0.0630489

gat.lin_r.weight f4 [128, 11]
00000000: 345a 8cbc 2fa7 0cbc 2878 06bd 8cf3 153d
00000010: 3944 21bd c660 06bc dd7f 82bc c1d1 053d
00000020: fd92 673d f9f4 a43d 75d9 153d aba9 05bd
00000030: a9d3 18bc 2751 2abd ee38 113d 1ba8 0dbd
00000040: 5c99 c63b 3d8a 4bbb 6bcf 0b3d 3f83 07be
00000050: 8a08 03be 52e7 4cbd 0369 903c cde3 30bd
00000060: 9c4d 5b3c f240 93bc 4c7f e4bc 5686 abbb
00000070: 8c3d 3e3d 98b8 c6bd f1d3 873c 5041 bd3c
00000080: 4700 74bb 12cc 8bbd 6f72 a73d 11b4 1fbe
00000090: 19af a03d 74d6 653d 06af ad3c 15be 32bd
000000a0: 743e 2ebe 273a 82bc 10c8 893d f8cc a23c
000000b0: 396a 783c 8a33 663b e001 ef3c 1b82 56bc
000000c0: 4c0b a93a 9e59 c63a d7d0 8c3b 945d 08bc
000000d0: 9699 0ebe 8f22 89be 5880 c53d 970f e0bc
000000e0: abb9 a2bc 6744 9fbc 5e5d 4b3c 4331 4c3c
000000f0: c8cf 1e3c d867 0c3d 04a1 dfbc aae6 633e
00000100: d557 8a3c bdfb 1abe 9a2f 4e3c baa9 8bbd
00000110: f3be 3aba 657b 4cbc 6c21 93bd 3e99 8a3b
00000120: df43 14bd 9e58 dfbb 776c ac3c 7bb8 c2bc
00000130: a18e 10bd f631 a8be 6b0f d63d 7aae 63bd
00000140: 508e f73d f20e b3bd b17c bc3d bf44 ad3f
00000150: c003 f2bf d70f 533d 109d 633d 7eee 33bd
00000160: b096 0b3d 1b02 dd3c a0d9 85bd 1006 c3bc
00000170: cfe2 943d 0ae4 0939 db28 b13d fa91 6fbd
00000180: 3999 84bd 356e 173b 923e aabc 44c3 1f3b
00000190: c171 e63a db3b ea3b 0bcb a3bb 88e3 64bb
000001a0: 43b4 8dbb 092c 1d3d 6c18 883c f734 9b3c
000001b0: 0ac8 3d3e b684 5ebc 03a1 e33a bb0d 423d
000001c0: 8300 da3c d3fb 52bc f75b 7c3c 6a62 653b
000001d0: fc19 ffbc 55c5 f9bc 5c56 dfbd 24b8 28be
000001e0: fe9f 923d 95b4 bb3d a5d4 6d3d a470 0d3e
000001f0: 5041 92bd f10d ec3d af7d 99bb a157 fb3d
00000200: 1a65 babd bc41 76bc 88c8 26be e72a 053d
00000210: 17f1 823b 55d2 62ba d537 893a c1e5 f2b8
00000220: dae1 7a3a c5e8 9dba f9db a3bb 41a6 c0bb
00000230: e94f 313c 5d9e 7abd afd7 6bbd 25d3 333e
00000240: 23a3 ac3d 92a3 393c 2a71 8dbd 1de3 2b3e
00000250: a015 e3bb 4165 b33d 5a7b 92bd 5b28 883d
00000260: 8001 88bc 0c24 1abe 99ea 713d 8be8 eb3c
00000270: 8785 d2bc 3ab3 473d 45bb b23d 4312 813c
00000280: c002 033e 40db 0abe a6f8 84bd ec8a b73d
00000290: afe1 59bd 15b0 c0bb 6a56 3e3c 6e44 423c
000002a0: fe95 36bc 6fdf 843c 0158 53bb 8c82 bbbb
000002b0: bba1 233c 7e21 08be 1dd0 a3bd 09de 0dbe
000002c0: 4ccd bd3d 7db0 28be e7d5 f13d 16a0 3ebe
000002d0: 94f2 513e c118 443e 0ed2 1d3f c929 a7bf
000002e0: 387d 15bd d5be 19bd cf7a 3abd 00cd f6bb
000002f0: 077c 743d 4f3f d03d 3e87 91bd 3d9d f23d
00000300: 7620 6e3d b15a f43d 8c4f c6be 0766 4a3d
00000310: a312 1d3e fb71 da3a 1c97 99bd 43c5 9639
00000320: 1f15 8ebd 47f1 a93d 9572 f63d 8e62 36be
00000330: 608b cbbf d7c4 4340 c223 94bb 7f30 35bb
00000340: 185e f53b eb51 2d3d ce9f d63c 040b 143d
00000350: eca8 b83c 04f0 51bc 41df d93b 7055 263d
00000360: e6c6 20bc 8ff5 20bd 17ee 83be 5e24 f53d
00000370: 6490 143d 1a93 9e3c e0b7 81bc ea70 6bbc
00000380: d642 513d df8d 79ba c0e1 c63c 64cb 27bd
00000390: 4be3 b8bd 39c9 48bd 8965 adbe 7ee8 7c3d
000003a0: 5cc7 183a a493 293d d4f5 20bd d833 1c3d
000003b0: cbea 903c 48e6 373d d015 6a3c 65dc 113e
000003c0: 1b64 1a3d 8b5c a9bd 1e81 dcbc e8e7 0a3d
000003d0: 70b8 8abc 9fa4 093d acea 543d 3f04 e33b
000003e0: b148 a73d b75d 7bbd 7fbc 90bd 84f7 463d
000003f0: 4c07 39be 16de c03c 6a4a 2dbd 6138 5d3c
-0.017132856 -0.008584782 -0.032829434 0.036609218 -0.039371703 -0.0082017835 -0.01593011 0.03267074
0.056536663 0.08054537 0.036584336 -0.03263251 -0.009327807 -0.0415813 0.035454683 -0.034584146
0.0060607623 -0.0031057738 0.034133356 -0.1323366 -0.12796226 -0.05002529 0.017628198 -0.043185998
0.013385203 -0.017975304 -0.027892731 -0.00523452 0.046445414 -0.09703177 0.016580554 0.023102432
-0.003723161 -0.06826033 0.08176123 -0.15596034 0.07845897 0.05611272 0.021201622 -0.043638308
-0.17016011 -0.01589687 0.06727612 0.019873127 0.015162044 0.0035125935 0.029175699 -0.013092543
0.0012897043 0.0015132909 0.0042973566 -0.008323092 -0.13925776 -0.2678418 0.0964362 -0.027351184
-0.019863924 -0.019441796 0.012412397 0.012462917 0.009693094 0.03427872 -0.027298458 0.2225596
0.016887585 -0.15135093 0.012584591 -0.06819482 -0.00071237906 -0.012480591 -0.07184109 0.0042296937
-0.03619754 -0.006815984 0.021047814 -0.023769608 -0.03529227 -0.32850617 0.104521595 -0.055586316
0.12087691 -0.08743085 0.092034705 1.3536605 -1.8907394 0.051528778 0.05556971 -0.043928616
0.034079254 0.026978543 -0.06535649 -0.023806602 0.07269823 0.0001315029 0.08650371 -0.058488823
-0.064745374 0.002310646 -0.020781789 0.0024377862 0.0017581509 0.0071482486 -0.00499857 -0.0034925658
-0.0043244674 0.038372073 0.016613208 0.018946154 0.1853334 -0.013581445 0.0017366711 0.047376376
0.026611572 -0.012877422 0.0154027855 0.0035001286 -0.03114032 -0.030489603 -0.109051436 -0.16476494
0.07159422 0.09165303 0.05806412 0.138125 -0.071413636 0.115260966 -0.004684172 0.12272573
-0.09101315 -0.015030321 -0.16287434 0.032511618 0.0039960253 -0.0008652558 0.001046891 -0.00011582254
0.00095703977 -0.001204752 -0.005000588 -0.005879194 0.010822275 -0.061186183 -0.05757874 0.17561014
0.08429553 0.011330502 -0.0690635 0.16785856 -0.006930068 0.08759547 -0.07152434 0.06648322
-0.016602278 -0.15052813 0.05906162 0.028797409 -0.025698436 0.04875491 0.08727125 0.015755778
0.12794018 -0.135602 -0.064927384 0.08962044 -0.053193744 -0.0058803656 0.011617282 0.011857135
-0.011144159 0.016219823 -0.00322485 -0.0057223495 0.00998729 -0.13294026 -0.07998679 -0.13854231
0.09267673 -0.16473575 0.11808377 -0.18615755 0.20502692 0.19150068 0.61648643 -1.3059627
-0.03649637 -0.037535507 -0.045527276 -0.007531762 0.059688594 0.10168325 -0.071058735 0.11846397
0.058136426 0.119313605 -0.38732564 0.049413707 0.1533914 0.0016666049 -0.07499525 0.000287572
-0.06937622 0.08297973 0.120335735 -0.17811033 -1.5901909 3.0588892 -0.004520864 -0.0027647314
0.0074880235 0.04231445 0.026199248 0.036143318 0.022541486 -0.012813572 0.0066489284 0.040608823
-0.009813046 -0.039296683 -0.25767586 0.11969827 0.036270514 0.019357253 -0.015834749 -0.0143701825
0.05108913 -0.00095197366 0.024277568 -0.040965453 -0.09027728 -0.049020026 -0.33866528 0.06174516
0.00058280467 0.041400567 -0.03929694 0.03813538 0.017690083 0.044897348 0.014287427 0.1424423
0.037693124 -0.08269604 -0.026917037 0.03391257 -0.01693365 0.03360426 0.051981613 0.0069279964
0.08168162 -0.06136867 -0.07067203 0.048575893 -0.1806919 0.023543399 -0.042307295 0.013502211

gat.lin_r.bias f4 [128]
00000000: 70c1 353d dfb3 833d db79 733c e01e b83d
00000010: cc01 38bc 943b 09bd f303 df3d 6e8d e33e
00000020: 4929 bebd 9787 013c 43c8 8dbc 43b3 4abe
00000030: 4432 8cba 7dac 82be f765 19be 54c5 bdbc
00000040: 6eb3 dcbe d524 65be 4564 1fbf e3ec 723b
00000050: 59e4 8dbd 3d3f 9abd b1dc abbd b56b 9abd
00000060: 3ecf 85bd ccb0 203f 1f24 e0be 336b dfbd
00000070: 0342 16bd 7e0e 11be 72b3 09be b809 80bd
00000080: d79e 893d 9d63 72bd 9b6d 21be 1c45 173d
00000090: b04c 16bd edca 373b 336f e5bc 5092 833c
000000a0: a4ca 22be 911d cd3d 1906 82bc d324 b7bd
000000b0: 3a14 8abe e9ed 6abd 1267 1abe 80e3 f4bd
000000c0: f0dd 96be 41a4 c6bd 77cd 153f 1c4e 0fbc
000000d0: d351 32bd 7cff 12be 2eed 373c 8816 503c
000000e0: 7e4f a4bc b60b 203d 34cc b93d 7929 24be
000000f0: 34a5 57bc d669 02be 18a6 3b3d 78a4 10be
00000100: 952f 843e 20db d2bd 8272 64be a120 01bd
00000110: 243c 163d 708d abbd f278 11bd 90aa 69be
00000120: be90 53bd 880f 193b 2306 a83c bed2 65bc
00000130: d296 b6bd cab7 03be cb9b 0cbe a0db d6bc
00000140: d9ce e33e 833a 83be 6ddd d63d 327c f53c
00000150: 22de e5ba 69f1 ec3d 0eba 44bc 8499 663e
00000160: 229f 46bd 2d2d 6f3e 4e1e 7bbe 5c29 a0bc
00000170: ae5a c53b 73f4 b6bd 2dd9 41bd 6640 0cbe
00000180: f2ac 213e 01a3 acbd a25b abbe 509b d03c
00000190: 1df6 82bd e951 ddbd d7dc 5f3c b9e8 a4bd
000001a0: 790e 9abe 9efb dabe c138 5ebd 4ad0 01bd
000001b0: fc41 df3d 1099 4d3d 729f 513e 272b d8bc
000001c0: 487c 493d 055c febd 2652 3bbe c22d 99bd
000001d0: cf55 af3d c06e ffbd c85a 62bc b02c 61be
000001e0: 36d2 89bd 9609 f8bc 3ceb 7a3d 0e17 08be
000001f0: 21bb aebc 9f5d ce3c 0289 193e 9185 35be
0.04437393 0.06430792 0.014860596 0.08990264 -0.011230897 -0.033504084 0.10889425 0.4444384
-0.09285218 0.007905862 -0.017307406 -0.19794945 -0.0010696133 -0.25522223 -0.14980303 -0.023165382
-0.43105644 -0.22377332 -0.62262374 0.0037067465 -0.069283195 -0.07531593 -0.08391703 -0.07540075
-0.06533669 0.6276977 -0.43777558 -0.109091185 -0.036684047 -0.14165685 -0.13447359 -0.06251854
0.067197494 -0.05917703 -0.15764467 0.036931142 -0.03669423 0.0028044537 -0.028007125 0.016060978
-0.15897614 0.10015405 -0.015872048 -0.089425705 -0.26968557 -0.057355795 -0.1507838 -0.11957455
-0.294662 -0.09699298 0.5851664 -0.00874665 -0.043535065 -0.14355272 0.011225982 0.012700684
-0.020057436 0.03907367 0.09072152 -0.16031446 -0.013161946 -0.12735686 0.045812696 -0.1412524
0.25817552 -0.10295701 -0.22309306 -0.031525258 0.03667845 -0.083765864 -0.035515733 -0.2281897
-0.05165171 0.0023355205 0.020510739 -0.014027296 -0.089154854 -0.12863079 -0.13731305 -0.026227772
0.4449375 -0.25630578 0.10491452 0.029966448 -0.0017537514 0.11569483 -0.0120072495 0.22519499
-0.048491605 0.23357077 -0.24523279 -0.019550972 0.0060227728 -0.08933344 -0.047326256 -0.13696441
0.1578863 -0.08429528 -0.33468348 0.025464684 -0.06394599 -0.10806639 0.013663492 -0.08052201
-0.30089167 -0.42770094 -0.054253343 -0.03169278 0.109012574 0.0501948 0.2047098 -0.026387764
0.04919079 -0.12419895 -0.18293056 -0.07479431 0.085612886 -0.12472296 -0.013815589 -0.21989703
-0.06729548 -0.030278008 0.061259493 -0.13290045 -0.021329464 0.025191126 0.1499367 -0.17726733

gat.lin_edge.weight f4 [128, 2]
00000000: ce86 203c cda0 073d 94b1 0a3e 79c5 3f3d
00000010: e2a7 2a3d a1ae b53c e00e f9bb 138e 40be
00000020: dee5 563e 61bf 32bd 7d58 253d 30ce 073c
00000030: 420c 2f3e 9da9 a93d 934e f73d 9ea2 31bd
00000040: 477c bcbc c026 3abe f388 473e debd 223c
00000050: 38c9 11bd 4a34 093e 5258 c53c a56f d5bc
00000060: 0936 9cbc 5ca9 d73b f95b 15be f82e 39bd
00000070: 2a74 ef3c 4785 45be 10be cabd ac04 abbc
00000080: 0bc9 72bd c7f5 e23d 390d 9ebe c7c2 543e
00000090: cb97 16bd 5645 e73b 4791 363e f563 b1bd
000000a0: eee4 d63d 7d67 da3c f2b4 73bd 0a2f aebd
000000b0: 9c0f 1abe 3aa7 f9bd efa8 e33d 2910 53be
000000c0: 50bc f83a 816c c7bc b4c0 443d 622e fd3b
000000d0: 9a07 e33c cc34 ddbc 327b cdbd a953 c33d
000000e0: 8ea2 1bbd a2e1 12be 84f8 2c3d 81f5 ff3c
000000f0: 7eac 563c e5db dfbd dbd5 1dbe 47c1 2abe
00000100: 7e0c e23d a480 72bd ba81 2d3d e2bc f6bd
00000110: 5f42 b4bc 40a1 2cbd 9f3f 6a3d d69b 4e3d
00000120: dae4 ebbd 40c7 bdbd ff4a ad3d dc28 a73d
00000130: 35c3 dabd 1e31 95bd f27b 2b3d 2164 aa3c
00000140: 962d 24be c236 513e 2e5a 3e3e b80f bcbc
00000150: 7080 af3d b828 8f3d 8329 20be 0d7a 96bd
00000160: cf39 85be 70d4 273f 6e0f 2b3e 5551 e83c
00000170: 8682 76be 1281 02be 8ae1 94bd e326 083c
00000180: 38b9 28bd 1110 82bd 8dad a23d 90d8 743e
00000190: 1183 a53d d26f 16bd 1617 19bd 469b af3d
000001a0: 6c94 82be ead5 013e 0a20 3abe 0937 7e3d
000001b0: b077 503e 4fda a93d 5154 4d3d 597a 1b3c
000001c0: 42ac 06be 312b c8bc e35e cb3c 95cd 22be
000001d0: db69 c83c c23c 4a3d d541 c2bd d677 9ebd
000001e0: c304 9cbc 2ee8 023e d735 dcbd b8da cdbd
000001f0: ab4e b33d c680 bd3c a2f7 283e 9775 983d
00000200: d3e0 f83d ed49 0dbc 0e03 9a3d 232c 83bd
00000210: 2e8e e0bc 42f9 193d 41a8 f0bd 119a 543d
00000220: 1c09 243e 1796 663e 05d4 60be 6f86 09be
00000230: ba70 1b3d 666f 7d3d a3dd 303d 77f7 1cbd
00000240: 24c4 653c 6712 033e 04ac f5bb f11d 84bb
00000250: eeac a3bd d2e1 88bc d722 fdbc 35dc 893d
00000260: d6f8 233e 8ef8 10be ce6f 71bd ad56 fa3d
00000270: 8388 b4bd 92ff 51be dde9 97be 5d57 0bbe
00000280: f18b c33d e90b 9e3d 8553 963d d2fe d2bc
00000290: edb8 463e 1384 c13d 0f75 5f3e 7c15 9e3e
000002a0: c17a 01be 8e26 30bd 867b b4bb 7d6e 5cbc
000002b0: 1aa2 9cbd f65d cc3d 81e0 7c3e 3b86 273e
000002c0: b4ea 4cbe c0ea 01be 32d8 6c3d 1832 40bd
000002d0: 7ef3 bdbd 69d8 263d 40e0 b5bd 430f 4fbd
000002e0: 7259 3dbc a1ab f83d 3dff 3e3e 077d b83d
000002f0: f68e 373e 9c6e 9abd 5101 8fbe c4d3 603d
00000300: cb69 ef3d 9405 00bd 93d5 2dbe d69f ccbc
00000310: 11f0 1bbb fea2 ddbd 5a2e 423d e939 c7be
00000320: 6dd8 0fbe 71c0 12be cfd8 f23d 7987 7ebe
00000330: 84ea 523c 83c5 283c db7e e4bd 7f50 47bd
00000340: 9c6a e8bd a695 523f a65a 6cbe 1524 923e
00000350: 189c 053c cc3b 6b3e ad05 bd3a 0b08 9e3e
00000360: 3e11 513c 90ef 233d 3464 1d3d 65d3 2d3e
00000370: 62d4 26be a92d 323d 6e29 44be 2c94 0dbd
00000380: 0518 63bd dc3f 1b3e efc5 23bd 15c8 a9be
00000390: 7c83 c93d a0ed fabc ccc9 20be a0d8 60bc
000003a0: 7753 803e 8069 93bd e1a3 e73c bfca 52bd
000003b0: 750a e8bd dfc2 c2bd eeea 89bc 416c eebc
000003c0: 3d45 94be 8d18 b1bc 83a3 55be 268f c9bd
000003d0: 4079 0fbd ca49 983e 7dbb ca3d 572b 263e
000003e0: ea36 5f3a 8e00 3b3e dc05 efbc 8a42 f93d
000003f0: dd08 0a3e b855 123e 2b85 4dbd 88ab d43d
0.009797765 0.033112336 0.13544303 0.046819184 0.04166401 0.022177996 -0.00760065 -0.18804197
0.20986125 -0.043639544 0.040367592 0.008288905 0.1709452 0.08284304 0.12075534 -0.043367974
-0.023008479 -0.18178844 0.19485836 0.009932963 -0.035592288 0.13398853 0.024089966 -0.026054213
-0.019068735 0.0065814685 -0.14585866 -0.04521081 0.029230196 -0.19289123 -0.09899533 -0.020876251
-0.05927376 0.110820346 -0.30869463 0.20777427 -0.036765855 0.007057826 0.17828856 -0.086616434
0.104928836 0.026660675 -0.059498735 -0.08505066 -0.15045017 -0.12190099 0.11116206 -0.20611633
0.001897702 -0.02434373 0.04803534 0.0077264765 0.027713586 -0.027002715 -0.10033263 0.09537441
-0.03799682 -0.14343885 0.04222919 0.031244995 0.013102649 -0.109306134 -0.1541361 -0.16675292
0.11037539 -0.059204713 0.042360045 -0.12047745 -0.022004304 -0.042145967 0.05718958 0.050441585
-0.11518259 -0.092665195 0.0846157 0.0816209 -0.10681764 -0.07284759 0.04186625 0.020799698
-0.16033015 0.20431045 0.18589088 -0.022956714 0.085694194 0.06990188 -0.15640835 -0.07347498
-0.26020667 0.6555853 0.16705105 0.028359095 -0.24073228 -0.12744549 -0.07269581 0.008310053
-0.041192263 -0.06350721 0.079432584 0.23910737 0.080816396 -0.036727734 -0.037375532 0.08574538
-0.25503862 0.12679258 -0.18176284 0.062064204 0.20358157 0.08293592 0.05012924 0.009489619
-0.13151649 -0.024434658 0.024825519 -0.15898736 0.024464538 0.04937435 -0.09485213 -0.07737701
-0.01904524 0.12783882 -0.10752457 -0.10051483 0.08755239 0.023132693 0.16500714 0.074443035
0.12152257 -0.008623582 0.07520114 -0.06404903 -0.027411547 0.037591226 -0.11750842 0.05190474
0.160191 0.22518192 -0.21955879 -0.13430189 0.0379493 0.061873816 0.04318012 -0.03832194
0.014023814 0.12799989 -0.0074973125 -0.0040318896 -0.07991968 -0.016709242 -0.030900402 0.06731454
0.16012892 -0.14157316 -0.058944516 0.12223563 -0.088151 -0.20507649 -0.2967061 -0.13607545
0.09548176 0.077171154 0.07340149 -0.025756273 0.19406481 0.09449019 0.21821998 0.30875766
-0.12644483 -0.04300552 -0.005507889 -0.013454077 -0.07648106 0.09978859 0.24695016 0.16359799
-0.20011407 -0.12687206 0.057823367 -0.046922773 -0.09274958 0.04073373 -0.08880663 -0.050551664
-0.01155697 0.121421106 0.18652053 0.09008222 0.17925629 -0.07540628 -0.27930692 0.054889455
0.116901 -0.03125532 -0.16976003 -0.02497856 -0.0023794214 -0.10822104 0.047407486 -0.3891137
-0.14047404 -0.14331223 0.11857759 -0.24856366 0.012873296 0.010300997 -0.11157008 -0.04866075
-0.11348459 0.82259595 -0.23081455 0.28543153 0.008154891 0.2297203 0.0014421247 0.3086551
0.0127604585 0.040023386 0.03842564 0.16975172 -0.16291955 0.043500576 -0.19156429 -0.034565136
-0.05544283 0.15161079 -0.039983686 -0.33160463 0.09839532 -0.030630887 -0.1570198 -0.013723522
0.2506368 -0.07197857 0.028276386 -0.051462885 -0.113301195 -0.09509825 -0.016835656 -0.029104354
-0.28959075 -0.021618152 -0.20863156 -0.098417565 -0.035027742 0.29743797 0.09899042 0.1622747
0.0008514958 0.1826193 -0.029177599 0.121708944 0.13479944 0.14290512 -0.050175827 0.103842795

mlp.0.weight f4 [32, 32]
00000000: 95d8 823e dbd6 353e 82f1 fb3d 1857 08bd
00000010: 9119 46be 20e8 fb3d 7da5 cbbd a62a 673e
00000020: bcad 163e d392 62be a790 88bd fa64 38bd
00000030: 2e8c 5a3e 155b d93e 206e 9fbd 9955 98bd
00000040: 4c63 513e 65ca d43e 6f3e 803d d1ac 923c
00000050: b76b 34be 6fe5 27be 2864 923b 64de 643d
00000060: 43aa 04be 14a2 afbd 9133 9d3e fcfc fdbd
00000070: 6f4f 803c d32f 273e bb22 dd3d fe06 a0be
00000080: 4acb 0f3e 1c2b 96bd aff5 85be ff8b 2f3d
00000090: 3c5a ee3d 310a 1abe f89b f93d d582 b9be
000000a0: 6a2d d53d 70d5 6d3d a5d3 2b3c d5a6 77bc
000000b0: 82ce 963e 5208 a7be b460 483e 1799 043c
000000c0: cdfd 79be 2db0 a7bd 38a8 bbbd 2e38 383d
000000d0: 7b91 2d3d 0d5c 12be b99b 403d 3082 d43c
000000e0: 43bc 483e 5df9 013e 8bf1 5fbe 76bc 503e
000000f0: ff37 33be a4be 09be 3733 1a3d cdfc ec3d
00000100: fea5 563e abc2 fa3d 5db2 873e 2827 11be
00000110: c54e debd 2e95 d5bd 7048 c0bd f330 493e
00000120: 2eee a83d 507a c0bc 4bc8 adbd 2274 1c3d
00000130: 6106 273e ab21 0a3f 6939 13be 7825 48be
00000140: 1697 8d3e 2187 873e 559b 043e a290 f2bd
00000150: 9110 6cbe e85a 66bd 689f e5bd 1a3f 343d
00000160: 3518 04be 2a53 28bd e2fb bb3e 5a83 85be
00000170: 7ec8 06be b391 0b3e 10b6 2e3e d694 b5be
00000180: b7c7 163e a3b5 9ebd 4740 a2be 5a90 e63b
00000190: 1d82 6a3d b7ff efbd 8254 8d3d dd5b 87be
000001a0: dead 86bc 52ef b73c e378 83bd 6d9b 463d
000001b0: 0590 5b3e aae4 e2be 0ee1 273e a608 813d
000001c0: c63d 043d 9037 03be 8740 f5bd fcc6 133e
000001d0: 8951 a43d 7c25 3cbe f680 373e e2d5 1ebd
000001e0: 2272 653e 1ff6 3d3d 9f10 3abe 15bd 523d
000001f0: 2c04 abbd ea5f 70bd 9eef 933d 7a05 463e
00000200: 27ad 463e b138 603d 355f 963e ba6b 8fbd
00000210: 3c12 18be 9321 91bd 7b79 b4bd fe85 d23e
00000220: 84eb c03d 20d6 9bbd 0efc 833d fb37 7abd
00000230: 782c 6f3e a48b ee3e 3f81 7abe 4247 0bbe
00000240: e168 993e c92d 333e c1b0 ed3d 2588 023d
00000250: 1df0 82be 4de9 d1bd c39e bdbd 29e5 6d3d
00000260: 4b31 9cbd 819e 743b 476e 7f3e 4a61 8abe
00000270: 98d5 37bd 9946 8c3e eec4 043e 4544 cabe
00000280: 9660 1dbd 7b3b f8bc bc88 b2be ef9a 32bd
00000290: 3a89 84bc a191 683d bc6a 3d3d b538 8ebe
000002a0: 71da df3d b43b bc3c a093 8fbd c7ed 943d
000002b0: 9d63 df3d c821 cfbe db31 203e b31f 2d3e
000002c0: 6357 04be 6b3a 4fbe b9c4 68bd d0e1 ba3c
000002d0: 8611 93bd acc5 6fbb 7a0e 503e d858 3fbe
000002e0: b9e5 fb3c 9c7b 943d 84b1 54be b7c9 603e
000002f0: 7d7c dfbd f373 6dbd 3a89 80be 5323 853e
00000300: a6f0 7b3e 9bb7 b43d ecc6 563e 7ab3 eabd
00000310: 70d9 1cbe a7c9 d5bd 1976 b1bd b6c2 803e
00000320: 6627 5b3d 6be4 06be 917a a5bd 3359 0d3c
00000330: bc30 093e 52f1 0b3f 3627 2fbe 882a 9bbe
00000340: 4853 a33e a228 953e 60db 573e 8a7a c93c
00000350: c759 91be cabd 8ebd 2742 23bd 4f2c 723d
00000360: fb99 f6bd 06a8 16be 706b 9e3e e4fb a0be
00000370: 915f 19be 256e 893e 7c4f 883e 11db a7be
00000380: 8fd3 463e 72fa 013e 1d10 8a3e 87c2 cbbd
00000390: 738d 98bd cd37 0cbe 0dc3 39be 6254 bf3e
000003a0: 0b4f e13d cf11 5cbd a32c 943d 2067 83bd
000003b0: 9bbe 4d3e a344 113f a422 46be 75cf 18be
000003c0: 0a18 8d3e 93af 323e b53f 4d3d e778 de3c
000003d0: a44f 93be 9f92 adbd cfa8 b4bd 0f3b af3c
000003e0: 45d3 4ebc ea2a 9ebd f2a0 aa3e 1241 58be
000003f0: aa41 26be 2de0 623e d3ff 5b3e f05f adbe
0.25555864 0.17757742 0.12301923 -0.033286184 -0.1934569 0.12300134 -0.09943674 0.22574863
0.14714712 -0.22126321 -0.06668215 -0.045018174 0.21342537 0.42452303 -0.077846766 -0.074382015
0.20448035 0.41560665 0.06261908 0.01790467 -0.17619215 -0.16396116 0.004467506 0.05587615
-0.12955575 -0.08575836 0.30703405 -0.124017686 0.015662877 0.16326837 0.1079764 -0.31255335
0.14042392 -0.07332441 -0.26164004 0.04285812 0.116383046 -0.1504295 0.12187952 -0.3623263
0.10409053 0.058064878 0.010487472 -0.015115459 0.29454428 -0.32623535 0.1956814 0.00809314
-0.24413224 -0.081879 -0.091629446 0.044975452 0.04237507 -0.14292927 0.04702351 0.025940984
0.19603066 0.12692781 -0.21869485 0.20384392 -0.1750183 -0.1345163 0.0376465 0.115716554
0.20961758 0.12244161 0.26503268 -0.14175093 -0.10854868 -0.104288444 -0.09388816 0.19647579
0.08248554 -0.023495823 -0.084854685 0.03819669 0.16311027 0.53957623 -0.14377369 -0.19545543
0.27654332 0.26470283 0.1294988 -0.11843993 -0.23053195 -0.05623904 -0.11212045 0.04400549
-0.12899859 -0.041094936 0.3671561 -0.26076776 -0.13162419 0.13629799 0.17061639 -0.35465115
0.14724623 -0.07749488 -0.31689665 0.007036251 0.057252992 -0.117186956 0.06900884 -0.26437274
-0.016440328 0.022452984 -0.06419542 0.04848807 0.21441658 -0.44315082 0.16394445 0.06300478
0.032285474 -0.12814164 -0.11975198 0.14431375 0.08023364 -0.18373674 0.17920288 -0.038778193
0.2240682 0.046377297 -0.18170403 0.051449854 -0.08350405 -0.05868522 0.07223438 0.19338027
0.1940199 0.054741565 0.29369512 -0.07002969 -0.14850706 -0.07086482 -0.08812233 0.41117853
0.09419921 -0.076092005 0.0644456 -0.061088543 0.23356807 0.46590912 -0.24463366 -0.13601401
0.2996283 0.17497934 0.11605979 0.03186812 -0.25573817 -0.10249577 -0.09258797 0.058079872
-0.076265894 0.003732592 0.24944411 -0.2702735 -0.044881433 0.27397612 0.12965748 -0.3950521
-0.03842219 -0.0303018 -0.34869945 -0.043604787 -0.016178716 0.056779508 0.046244368 -0.2777764
0.10930336 0.022977687 -0.07010579 0.07271915 0.109076716 -0.4045546 0.15644018 0.16906624
-0.1292396 -0.20237128 -0.056828234 0.022812754 -0.07181077 -0.0036586327 0.20318022 -0.18686235
0.030749189 0.07250139 -0.20770842 0.21951948 -0.10912416 -0.057971906 -0.25104696 0.26003513
0.24603519 0.088240825 0.2097432 -0.11460014 -0.15317321 -0.10438853 -0.086651035 0.25148553
0.05350437 -0.13173072 -0.08080018 0.008627224 0.13397497 0.546651 -0.17104802 -0.30305886
0.31899476 0.29132563 0.21079779 0.024594564 -0.28388807 -0.06969793 -0.03985801 0.059124287
-0.12041088 -0.14712533 0.30941343 -0.31442177 -0.14977862 0.26841846 0.26623142 -0.32784322
0.1941664 0.12693194 0.26965418 -0.099492125 -0.07448854 -0.13693161 -0.18140812 0.37369066
0.110014044 -0.05372792 0.07235076 -0.06416154 0.20092241 0.56745356 -0.19349152 -0.14922889
0.27557403 0.17449789 0.050109584 0.02715726 -0.28771698 -0.084752314 -0.0882126 0.021390466
-0.012623613 -0.07723029 0.33325917 -0.21118572 -0.16235986 0.22155829 0.21484308 -0.33862257

mlp.0.bias f4 [32]
00000000: 9e9a 0bbe fd3b ab3e 02b6 323e 1cfc 923e
00000010: 7643 cf3d eedf dd3e 7f7b 343e b7be 5e3e
00000020: 954b f43e b2db d93e 4658 f23e d19d 893d
00000030: 6cc7 9a3d 6c4d 29bd 54a5 cb3e 2a2f 5ebe
00000040: 5871 4b3d 450d e6bd d977 113f 2ade fd3e
00000050: 4b6c 3dbe 1433 e13e ac6f adbc 105e 1f3f
00000060: 2c0b 093e 558d 9a3c 1f67 c93d 6eca 843d
00000070: c4a5 ee3e 5b05 cebc 17bb f03e d6bd 1a3f
-0.136332 0.33444205 0.17452243 0.2870797 0.10120289 0.43334907 0.17625235 0.2175244
0.47713915 0.42550427 0.47332972 0.06719554 0.07557568 -0.0413336 0.39774573 -0.21697679
0.04966864 -0.11233 0.568235 0.4958356 -0.18498342 0.43984282 -0.021171413 0.62252903
0.13383168 0.01886622 0.09834122 0.06483923 0.46610844 -0.025149038 0.47017738 0.60445917

mlp.3.weight f4 [1, 32]
00000000: f7c9 29bf 1897 9f3e 20a7 6ebf b3dc 993e
00000010: 24d5 3fbf d6e1 4a3e bec6 7abf 8bdf 5cbf
00000020: 6ba3 573e c28f d13e e557 6a3e 6ceb 4cbf
00000030: 03fe 4abf 0a8c 08ba b847 673e 2ce4 84be
00000040: 5d87 17bf f799 2cbf 8f29 033f e779 363f
00000050: ad90 21bf 01f1 783e 9427 63bf f43b 643f
00000060: a282 1abf d3dc 0dbf 0711 71bf b0ce 55bf
00000070: 517a 713e ed1c 1bbf 783e 003f 558a b13e
-0.663238 0.31169963 -0.9322376 0.30051193 -0.749346 0.19812712 -0.97959507 -0.862786
0.21058433 0.4092999 0.22885092 -0.80046725 -0.7929384 -0.0005208856 0.22585952 -0.2595533
-0.5919092 -0.6742243 0.5123529 0.7127976 -0.6311138 0.24310686 -0.88732266 0.8915398
-0.6035558 -0.55415076 -0.94166607 -0.83518505 0.23581816 -0.6059101 0.5009532 0.3467585
